DCE_predictive_model.pkl (torch, 474643 bytes, 88 tensors)

weight f4 [4, 3]
000000 4f 4f 6f bb 23 fe f1 bb aa 3b a0 3a 29 78 25 be
       -0.0036515777 -0.007385032 0.0012224813 -0.16159119
000010 76 00 98 be 93 5c 4d 3e 27 20 45 3d 0d ac 3c 3d
       -0.29687852 0.20054846 0.048126366 0.046062518
000020 18 cc ee bd 12 81 4c 3e 41 6d 90 3e 3d ad f8 bd
       -0.116600215 0.19971111 0.28208354 -0.121424176

weight f4 [10]
000000 2d 31 6e 3f e9 89 87 3f 21 50 54 3f b7 62 8f 3f
       0.93043786 1.0588962 0.82934767 1.1202
000010 4b f9 84 3f 61 72 80 3f f4 6f 83 3f 40 07 8e 3f
       1.0388578 1.0034906 1.026854 1.1095963
000020 46 a8 8a 3f 4c 44 72 3f
       1.0832603 0.9463546

bias f4 [10]
000000 f4 c5 a1 bd 2d 70 04 3d 11 5f 82 bc 66 05 56 bd
       -0.07899085 0.03233354 -0.015914472 -0.052251242
000010 a8 26 97 bb 76 93 ac bb 42 24 84 3d 5f 8f 83 bd
       -0.0046127625 -0.005266602 0.06452228 -0.0642383
000020 66 a9 d9 bc 83 61 6a bd
       -0.026570033 -0.0572219

running_mean f4 [10]
000000 d5 94 77 3b bc d7 4d 3c 21 da 5e 3c 65 51 e2 bb
       0.003777792 0.012563642 0.013601811 -0.0069066756
000010 2d f0 12 bc 80 4c 03 bc aa ed cc 3b 07 e0 cc 3b
       -0.008968395 -0.0080138445 0.0062539177 0.006252292
000020 af 57 b5 3c 1b 5f 1a 3c
       0.022136537 0.009422089

running_var f4 [10]
000000 da ec 8a 3f 87 57 75 3f 5c 3a a3 3f 17 2f 80 3f
       1.0853531 0.9583668 1.2752185 1.0014371
000010 a1 7a 80 3f ba 92 80 3f 42 b5 80 3f 4a b5 80 3f
       1.0037423 1.0044777 1.0055315 1.0055325
000020 f3 17 7f 3f 52 cb 7f 3f
       0.9964592 0.9991962

weight f4 [300, 13]
000000 c4 64 98 3d 49 54 b5 bc 4c 76 08 3e 40 b0 f8 bc
       0.074410945 -0.022134917 0.13326377 -0.03035748
000010 73 c7 a6 bd cd 48 a0 3c 90 79 33 3d 92 e1 64 3e
       -0.08143511 0.019565964 0.043817103 0.22351673
000020 0a b3 72 be fe 5c ed bd 04 16 3b be 65 6f a1 be
       -0.2370111 -0.115900025 -0.18270117 -0.315303
000030 0e 47 30 3e 83 bf a7 3c 42 31 7a be 35 b8 c1 3d
       0.17214605 0.020477062 -0.24432853 0.09458963
000040 e3 9b d0 3d 0e 16 9c 3e 91 19 3c 3e fb 4b f2 3d
       0.10185983 0.30485576 0.18369128 0.118308984
000050 13 51 fd 3c 23 5e 26 bd a5 b4 f7 3d 21 74 86 be
       0.030922448 -0.04061712 0.12095002 -0.26260474
000060 9f 00 33 be 0d 20 1d 3e 10 e5 b5 3d f0 70 29 be
       -0.17480706 0.15344258 0.08881581 -0.16546988
000070 74 b4 3d 3e 74 02 4f be 08 ba 93 bd f9 3b 02 be
       0.18525869 -0.2021578 -0.07213217 -0.1271819
000080 61 bc 31 3e 5b 17 c9 3d 05 28 58 3e 30 48 43 bc
       0.17357017 0.09818908 0.21109016 -0.011919066
000090 6c 88 8f bd d2 0c b7 bd 63 7e b2 bd c7 3e 38 bc
       -0.07008442 -0.08937992 -0.087155126 -0.011245436
0000a0 7b a3 d3 be c1 fc 6f bd fa 6e a9 3e ca ad 1b 3e
       -0.41335663 -0.058590654 0.3309248 0.15203014
0000b0 64 6f db bd a3 03 be bc 43 f3 55 3d 73 a4 60 3e
       -0.107146055 -0.023195093 0.052233946 0.21937732
0000c0 75 c3 68 3e 69 00 35 3e 31 c4 e1 3d 94 c6 00 be
       0.22730811 0.17675938 0.11023749 -0.12575752
0000d0 9e c5 a5 3d 4a e9 92 3d b4 a0 0f 3e a6 13 8c be
       0.08094333 0.071734026 0.14026147 -0.2735874
0000e0 9b d4 a2 3e 4a bd 83 bd d0 12 6f 3e c0 c3 91 3e
       0.3180283 -0.064325884 0.2334702 0.28469658
0000f0 9f 6f fb bd 4c db 47 3e 85 c1 72 be 98 7d 4b be
       -0.122771494 0.19517249 -0.23706634 -0.19872129
000100 af 6b 53 be 8c 67 9d 3d 85 d6 8b bd 16 57 e9 bd
       -0.20646547 0.076857656 -0.06828026 -0.113935634
000110 91 fd 8a 3e f1 06 fb bd a9 02 8a 3d f1 b1 40 3c
       0.2714658 -0.12257183 0.06738789 0.011761175
000120 cc 4f c6 bd 61 0f 41 bd b1 d6 93 be 7d 31 41 be
       -0.09683189 -0.047133807 -0.28874734 -0.18866535
000130 e0 7d 60 be 79 6e 96 3b a1 10 81 3c 5f 84 86 be
       -0.21923018 0.004590806 0.015755 -0.26272866
000140 15 ed a8 3d ea 68 0d be 8b cc 31 bc 42 c8 9b 3d
       0.08248345 -0.13809553 -0.0108519895 0.076065555
000150 e7 72 4c 3e 93 7c fd bc 39 dd ae 3d 88 a0 83 be
       0.19965707 -0.03094319 0.085382886 -0.25708413
000160 d9 af 8a bd d9 f3 66 be 25 9b af bd 58 a2 be 3d
       -0.067718215 -0.22553958 -0.08574513 0.09308308
000170 46 cc 09 be 96 35 a4 3e 3b d1 65 3e 1e 39 8c be
       -0.1345683 0.32072133 0.22443096 -0.27387327
000180 0d 32 6c 3e 30 0d 1e 3e 7f 23 42 be 0d 28 1f bd
       0.23065968 0.15434718 -0.18958853 -0.038856555
000190 ff d2 d1 bd fa 69 8a 3e 08 e6 27 3e 5f 63 4e 3e
       -0.102453224 0.2703398 0.16396344 0.20155095
0001a0 7c 54 a9 be 21 e1 2c bc 1a 83 e4 bd e9 c5 6b 3e
       -0.3307227 -0.010551722 -0.11157818 0.23024715
0001b0 4e 9e 90 3e 19 6b 35 3e 47 b4 c1 3b 13 41 0c bd
       0.28245777 0.17716636 0.0059113833 -0.034241747
0001c0 54 5d 28 3e 31 24 33 3e 7e 3d 76 be 98 d5 73 bc
       0.16441852 0.17494275 -0.24046895 -0.014882468
0001d0 b2 02 6b 3d 5a 44 c4 3e 1d fa ad 3e 74 e8 60 bd
       0.057375617 0.38333398 0.33979884 -0.054909185
0001e0 ed 24 43 bd a1 68 07 be 72 33 48 be 04 75 be bd
       -0.047642637 -0.13223507 -0.19550875 -0.09299663
0001f0 8a d8 c4 3c c0 a0 7b 3d 8a 9a ba 3d 1a ac 65 3e
       0.024029035 0.0614326 0.09111507 0.22428933
000200 91 dc 34 be 1a a5 ea 3d 71 cb 31 3e 91 35 2c be
       -0.17662264 0.11457272 0.17362763 -0.16817309
000210 6c 7c 7e 3e b1 da 10 3e 5c 12 eb bc 04 32 c4 bd
       0.2485215 0.14145924 -0.028695278 -0.09579852
000220 b3 2c 93 be 2b 6c 84 3c 3a 0c 6b be 6b 25 32 3e
       -0.2874504 0.01616486 -0.22953883 0.17397086
000230 40 70 86 bd 0f 23 21 be cc 9c f6 3d 27 04 03 bd
       -0.06564379 -0.1573603 0.120416254 -0.03198638
000240 77 15 44 3e 9e 4a 29 be 5c 55 3e bd aa 19 7a be
       0.19148813 -0.1653237 -0.046468124 -0.24423853
000250 d6 49 35 be 61 79 63 3e 13 5d 40 3e 5e 13 2a bd
       -0.17703947 0.22214271 0.18785505 -0.041522376
000260 24 de 43 3e be 88 3b be 01 af 51 3e 1a 4e 26 be
       0.19127709 -0.18313882 0.20476915 -0.16240731
000270 26 70 ff 3d 0e 02 31 3d 73 72 99 3e 7c 98 4c bd
       0.124725625 0.04321485 0.2997013 -0.049950108
000280 ba fc d7 3d 71 cd 64 3e d0 bf 3e be 96 5e 4a be
       0.10546251 0.22343995 -0.18627858 -0.19762644
000290 98 d3 84 3d 89 17 58 bd 88 ae 7d 3e ea 8d a9 3c
       0.06485671 -0.05275682 0.2477361 0.020697553
0002a0 9b a4 93 bd 7d 0d 96 be da fa 28 be ff 92 a9 3e
       -0.072091304 -0.29307166 -0.16501942 0.33119962
0002b0 a6 8a 7e 3e a3 28 67 3d f2 72 a2 3a 21 c8 9a 3d
       0.24857578 0.05643524 0.0012393876 0.07557703
0002c0 35 d4 3b be bd 5b fb bc 99 fe 27 3e a4 1a d4 bd
       -0.1834267 -0.030683393 0.16405715 -0.10356644
0002d0 92 2f 4c be a2 3c 32 be 62 05 21 bf 0d 94 99 be
       -0.19940022 -0.17405942 -0.6289884 -0.29995766
0002e0 da 54 eb 3e 5c ee 41 be a4 8a 34 be 55 df 58 3e
       0.45963174 -0.18938583 -0.17631012 0.21178944
0002f0 39 2e be 3c 4a 71 5a be 17 fe 1a be 69 e8 29 be
       0.0232154 -0.21332279 -0.1513599 -0.16592564
000300 c9 23 4f 3e dd 8d 1e 3e 40 2c 92 be 31 f5 39 be
       0.20228495 0.15483804 -0.28549385 -0.1815994
000310 9e 16 1c be 86 b6 3e 3e dc 4e ae bd 44 66 86 3e
       -0.15243003 0.18624315 -0.08511135 0.26249897
000320 14 d5 e1 3d 89 3d 5b 3e 45 b2 10 be 26 6f 0c 3e
       0.110269696 0.21410193 -0.14130504 0.13714275
000330 45 2c 12 bd 1d e7 56 3e e3 dd a7 be ef ae ef 3d
       -0.03568675 0.209866 -0.32786474 0.11703288
000340 70 58 ab 3d d9 de f6 3d ea 73 af be c4 d1 ca bd
       0.083664775 0.120542236 -0.34268123 -0.09903291
000350 7c 8f 6f 3d e8 97 69 3d 10 13 5c 3d 68 3a 81 3e
       0.058486447 0.057029635 0.053729117 0.25239873
000360 2e 55 e4 3b bb 70 66 3e 6e 16 dd 3d cb 7c 8c 3e
       0.006968162 0.22503941 0.10795294 0.2743896
000370 fd ef da 3d 70 9c d3 3d bb dc 70 bb fe a6 a2 3d
       0.106903054 0.103325725 -0.003675266 0.079420075
000380 44 f7 97 bb 54 96 d6 bd af 94 09 3d 8f 2b 9e bd
       -0.0046376307 -0.104778916 0.03358906 -0.07723152
000390 41 8b bf 3d 5b f9 9c bc 10 b6 71 3e 05 e5 4e 3d
       0.093527324 -0.01916187 0.23604608 0.05051138
0003a0 5f 72 5b be 07 39 06 be ce da a3 be 56 c7 93 be
       -0.21430348 -0.13107692 -0.32002872 -0.2886302
0003b0 6e c9 19 3e 01 90 d9 bd 68 a5 14 be 24 45 4a be
       0.15018246 -0.1062317 -0.14516222 -0.19752938
0003c0 8f 4f 68 be 94 2a 78 3e 8f 30 25 be d2 7e 12 3c
       -0.22686599 0.24234992 -0.16131805 0.008941369
0003d0 bd 6f ec bd 1e bb 83 be 00 f3 97 3d 5f fe a5 be
       -0.1154475 -0.25728697 0.074193954 -0.32420632
0003e0 da 7d 9d be fc 6f 14 3d d3 f1 5c 3e d9 40 97 3d
       -0.3076008 0.03623961 0.21576624 0.073854156
0003f0 4d 4c d7 bd af b9 76 3c 5c 25 c7 bd 45 40 21 3e
       -0.105126 0.015058919 -0.097239226 0.15747173

weight f4 [300]
000000 4e da 74 3f 59 50 79 3f 9a 23 82 3f 06 7f 83 3f
       0.95645607 0.97388226 1.0167115 1.027314
000010 11 30 72 3f d4 85 86 3f 2d 19 7e 3f cd 77 7b 3f
       0.94604594 1.0509591 0.99257165 0.98229676
000020 4b 2f 7b 3f e1 41 76 3f 33 2d 81 3f 1f b1 82 3f
       0.9811904 0.96194273 1.0091919 1.0210303
000030 95 0b 7d 3f a8 d2 7f 3f 07 6e 86 3f 63 42 84 3f
       0.988458 0.9993081 1.0502328 1.033276
000040 59 47 85 3f 06 77 76 3f c8 99 75 3f 0d fa 80 3f
       1.0412399 0.96275365 0.95937777 1.007631
000050 91 9e 78 3f 97 bb 7a 3f 42 63 82 3f ca cf 85 3f
       0.97116953 0.9794249 1.0186541 1.0454037
000060 53 9a 88 3f 16 ed 74 3f b7 68 83 3f ed 4b 82 3f
       1.0672096 0.95674264 1.0266331 1.0179421
000070 b7 9c 83 3f d8 92 80 3f 4e 2e 83 3f 3b a9 7f 3f
       1.02822 1.0044813 1.0248506 0.998676
000080 73 41 84 3f 94 3c 82 3f 07 de 83 3f 52 d3 81 3f
       1.0332474 1.0174737 1.0302132 1.0142615
000090 86 1f 84 3f 11 e4 77 3f bd 85 78 3f 0f 16 85 3f
       1.032212 0.96832377 0.9707907 1.0397357
0000a0 bb d5 81 3f 09 03 7b 3f 2a 86 79 3f b2 fc 7c 3f
       1.014335 0.98051506 0.97470343 0.9882308
0000b0 6b fa 80 3f 93 a0 7f 3f 8d 31 7d 3f d1 ca 7e 3f
       1.0076421 0.9985439 0.98903733 0.99528223
0000c0 d6 1c 6c 3f f2 e9 85 3f 1b fd 82 3f ca e9 87 3f
       0.922315 1.046202 1.0233492 1.0618222
0000d0 aa a6 7a 3f 21 89 81 3f 44 fb 85 3f a9 77 8e 3f
       0.9791056 1.0119973 1.0467305 1.1130267
0000e0 7b c2 76 3f d3 d6 77 3f 95 c9 7d 3f 3d d0 7f 3f
       0.96390504 0.9681217 0.99135715 0.9992712
0000f0 1c fb 87 3f ac 8b 76 3f 0f fd 85 3f 50 eb 87 3f
       1.0623507 0.9630687 1.0467852 1.0618687
000100 a4 cd 89 3f 8b 93 70 3f 7d 7e 7f 3f 17 73 88 3f
       1.0765882 0.9397513 0.9980238 1.0660123
000110 44 ec 84 3f a3 5b 75 3f 27 3f 7c 3f b5 90 73 3f
       1.0384603 0.9584295 0.9853386 0.9514268
000120 50 1b 7d 3f 1a 3c 6f 3f 58 dc 85 3f 43 2b 82 3f
       0.988698 0.9345108 1.0457869 1.0169452
000130 dd 20 84 3f b0 51 78 3f 25 9c 70 3f d6 5b 82 3f
       1.0322529 0.96999645 0.9398826 1.0184276
000140 c9 76 73 3f 38 ec 7b 3f 25 d8 7c 3f 53 fc 7a 3f
       0.95103127 0.98407316 0.9876731 0.98041266
000150 a9 c6 7b 3f 6e d1 73 3f 88 ec 7c 3f f2 8f 73 3f
       0.98350006 0.9524144 0.9879842 0.9514152
000160 9c 2e 81 3f ca 78 71 3f 22 47 6d 3f 6c 34 82 3f
       1.0092349 0.94324934 0.92686665 1.0172248
000170 81 cd 79 3f b9 5c 7d 3f 66 35 86 3f 7a 96 82 3f
       0.975792 0.9896961 1.0485046 1.0202172
000180 9d 80 83 3f d6 3f 80 3f 39 2c 7f 3f 41 80 80 3f
       1.0273625 1.0019481 0.99676853 1.003914
000190 66 ae 7e 3f 38 ad 81 3f 69 79 78 3f 40 84 82 3f
       0.9948486 1.0130987 0.9706026 1.019661
0001a0 21 61 7b 3f 03 9b 82 3f 24 e2 70 3f d3 df 87 3f
       0.9819508 1.0203556 0.94095063 1.0615181
0001b0 44 20 83 3f 4b 74 84 3f 8d b9 72 3f df 93 86 3f
       1.0244222 1.034799 0.9481438 1.0513877
0001c0 03 68 86 3f f8 04 91 3f 10 cd 80 3f e2 eb 84 3f
       1.0500492 1.1329641 1.006258 1.0384486
0001d0 e9 87 73 3f 57 34 85 3f 8b de 75 3f 84 73 80 3f
       0.9512926 1.0406598 0.960427 1.0035253
0001e0 4d fd 80 3f e0 05 87 3f e8 b4 7b 3f f4 27 80 3f
       1.0077301 1.0548668 0.98322916 1.0012193
0001f0 6e eb 77 3f a5 d4 84 3f fa 55 7c 3f 0b 74 7b 3f
       0.9684361 1.0377394 0.9856869 0.9822394
000200 bd 2f 80 3f 8c b0 7e 3f d7 31 7a 3f f2 a1 81 3f
       1.0014569 0.9948814 0.977323 1.0127547
000210 57 fc 6f 3f 46 e2 76 3f a5 37 6d 3f a9 fd 70 3f
       0.93744415 0.96439016 0.9266303 0.94137055
000220 a7 5e 72 3f 76 56 7d 3f 69 1c 7b 3f 85 fe 7f 3f
       0.9467568 0.98960054 0.98090225 0.9999774
000230 1e 72 78 3f 7a 14 80 3f 12 c1 78 3f ea 92 6d 3f
       0.9704913 1.0006249 0.971696 0.928023
000240 8d e8 76 3f 5c 5b 84 3f 3a 9c 8f 3f 8f df 85 3f
       0.96448594 1.0340381 1.1219552 1.045885
000250 51 0d 89 3f d8 34 7b 3f 0d bd 7f 3f ca ca 6e 3f
       1.0707189 0.9812751 0.99897844 0.9327818
000260 49 c9 81 3f bf e4 70 3f 57 c3 82 3f 7f 84 81 3f
       1.0139552 0.9409904 1.0215863 1.011856
000270 26 14 6c 3f c0 a8 7b 3f 6c 07 89 3f 4e 8e 84 3f
       0.92218244 0.9830437 1.070539 1.0355928
000280 f7 82 82 3f b2 75 89 3f f2 6e 7a 3f ed ad 79 3f
       1.0196217 1.0739043 0.9782554 0.97531015
000290 17 fa 7b 3f 33 9b 81 3f 2b aa 74 3f 86 81 7f 3f
       0.9842848 1.0125488 0.95572156 0.9980701
0002a0 75 ce 89 3f aa a0 80 3f 40 ba 81 3f ea 14 7e 3f
       1.0766131 1.0049031 1.0134964 0.9925066
0002b0 8c 33 81 3f 3e 87 83 3f 87 f3 7c 3f d7 f9 7e 3f
       1.0093856 1.0275648 0.98809093 0.99599975
0002c0 8b b2 8e 3f ad b4 7c 3f 32 82 7f 3f 0b 13 75 3f
       1.1148237 0.9871319 0.9980804 0.9573218
0002d0 99 dc 82 3f ce 81 78 3f 27 99 78 3f 50 44 6e 3f
       1.0223571 0.97073066 0.9710869 0.93072987
0002e0 ee 42 88 3f 40 12 7e 3f 15 ba 83 3f 3f 91 6a 3f
       1.0645425 0.992466 1.0291163 0.9162788
0002f0 4d f5 7a 3f 65 69 7a 3f 12 99 73 3f 59 ae 79 3f
       0.9803055 0.9781707 0.9515544 0.9753166
000300 67 06 7c 3f 86 81 88 3f 60 5c 7a 3f 81 a0 83 3f
       0.9844727 1.0664527 0.97797203 1.0283357
000310 4d 19 7b 3f 47 20 86 3f 1b 6f 84 3f 86 00 76 3f
       0.9808548 1.04786 1.0346407 0.9609455
000320 6f 86 85 3f 32 ba 84 3f 42 47 70 3f c8 38 84 3f
       1.0431651 1.0369322 0.9385873 1.0329828
000330 ca 82 7e 3f af 2e 68 3f 4e 2c 81 3f 7d bd 85 3f
       0.9941832 0.90696234 1.0091646 1.0448452
000340 dd d1 76 3f 31 47 74 3f 56 f9 80 3f 26 cf 7c 3f
       0.96413976 0.9542113 1.0076091 0.98753583
000350 34 2a 7f 3f e9 5d 82 3f 0f f5 75 3f 22 65 78 3f
       0.9967377 1.0184909 0.96077055 0.97029316
000360 72 d8 85 3f f0 5b 7c 3f 4a fc 7f 3f 64 d3 80 3f
       1.0456679 0.98577785 0.9999434 1.0064511
000370 5d 8e 85 3f b2 3d 7e 3f 55 8e 84 3f 42 e1 6c 3f
       1.0434071 0.9931289 1.0355936 0.92531216
000380 7e 4d 80 3f e4 13 8a 3f 81 83 75 3f aa ac 70 3f
       1.0023649 1.078732 0.95903784 0.94013464
000390 c4 a3 82 3f 5b 05 81 3f 22 94 7c 3f 12 8c 70 3f
       1.0206227 1.0079759 0.9866353 0.9396373
0003a0 75 e5 79 3f ca 22 72 3f 02 c7 82 3f af 78 76 3f
       0.9761575 0.94584334 1.0216982 0.962779
0003b0 d9 41 7e 3f a4 96 79 3f 5c 7d 7e 3f 12 80 78 3f
       0.99319226 0.97495484 0.99410033 0.9707042
0003c0 f3 5f 7a 3f 89 45 82 3f c3 84 8b 3f 29 87 83 3f
       0.97802657 1.017747 1.0899891 1.0275623
0003d0 d8 89 84 3f bd ad 84 3f cb c1 87 3f 14 16 79 3f
       1.0354567 1.0365521 1.0606016 0.97299314
0003e0 9b 36 80 3f 06 52 78 3f 6a 75 82 3f f6 91 82 3f
       1.0016664 0.9700016 1.0192082 1.0200794
0003f0 39 22 78 3f 49 08 76 3f 91 d0 81 3f 64 bc 7c 3f
       0.9692722 0.9610639 1.0141774 0.9872496

bias f4 [300]
000000 87 42 2a 3c ec 1d b9 3b 0e 21 9e 3d c2 0e 8f bd
       0.010391838 0.005649319 0.077211484 -0.06985237
000010 60 5d 8f bc 80 2b 5b 3d 46 ca 87 3d d3 40 1d bd
       -0.01750058 0.05350828 0.066303775 -0.0383919
000020 fa d7 40 bd 25 1c 17 3c f9 86 26 3b 93 0f 73 bc
       -0.04708097 0.009223019 0.002541004 -0.014835256
000030 6e ae 00 3e 23 a2 2b 3d 33 e3 0a 3d 0d a7 44 3d
       0.1256654 0.041902672 0.03390808 0.048010875
000040 f5 d5 94 bd 01 a6 41 3d 94 4a a5 3a b5 88 61 bd
       -0.072673716 0.047277454 0.0012610727 -0.055062015
000050 87 11 3d bb f3 9c 0c bb b4 f3 e7 3b 14 58 83 bd
       -0.0028849558 -0.0021455854 0.007078612 -0.06413284
000060 97 5f c2 3d 12 4a 03 bd 1e 8c 0d 3d 59 d1 de bc
       0.094908886 -0.03205306 0.034557454 -0.027199434
000070 27 d4 48 3c a1 8a 92 3d 36 e1 9f 3c b8 0a 10 bc
       0.012257612 0.071553476 0.019516569 -0.008791618
000080 b1 4a 37 bd 22 b0 a7 3c 8d c5 6a bd 7c 4d 66 3d
       -0.044748966 0.020469729 -0.057317305 0.05622624
000090 fa d8 b6 bd 05 c9 6c bd 05 58 7e 3d 3d d1 8c bc
       -0.08928104 -0.057808895 0.06209566 -0.017189616
0000a0 7e 5d 12 3d 9f 2b ba 3a 09 3a a2 bc 90 4e 77 3d
       0.035733692 0.0014203674 -0.019803064 0.060377657
0000b0 d0 69 57 3d 14 df 8f bc 8a 5a 6e 3c 24 20 00 3d
       0.052591145 -0.017562427 0.014547953 0.03128065
0000c0 ba 56 2d 3d 2f 02 2e 3c b2 a0 ab 3b 13 c3 f0 bd
       0.042319037 0.010620638 0.0052376622 -0.117559575
0000d0 23 1e 8e 3d 73 b9 de bb 17 d5 07 3c 81 08 f9 3d
       0.06939342 -0.0067970096 0.008290551 0.12159825
0000e0 4c f5 83 bb 2c 90 e0 3d 53 a0 3b 3d af 6d 3a bd
       -0.0040270444 0.109649986 0.045807194 -0.04551476
0000f0 0f 2c 95 3c 4f 8a eb bd 82 a4 4e 3d 67 cf 3d bc
       0.018209485 -0.1150099 0.050449856 -0.011585093
000100 e5 3f b4 3d fc 02 25 bc 18 c9 fa 3b 80 25 e9 3c
       0.088012494 -0.010071512 0.007653367 0.028460264
000110 62 5e 19 3c 88 c1 48 3d 9d c7 18 bd 30 43 b8 3a
       0.0093608815 0.04901269 -0.03729974 0.0014058109
000120 2c 97 41 3d 62 1f 9d 3b ed 55 94 bd 84 4c df bd
       0.04726331 0.004795001 -0.072429515 -0.10903266
000130 f6 75 c9 bd 74 bd fa bc ac 1c 1c bd 3d e8 dd 3d
       -0.098369524 -0.030607916 -0.03811328 0.108353116
000140 09 74 a0 3d 48 31 36 3d 73 fc 16 bd a0 4d 86 bc
       0.07834632 0.044480592 -0.036861848 -0.016394436
000150 06 0f 00 3d 52 ec 22 bc 6f 78 92 bc aa 47 2f 3d
       0.031264327 -0.009944038 -0.017879693 0.042792954
000160 da 77 64 bd a2 8a 34 3d 07 75 b0 bb b5 17 0d 3d
       -0.05577836 0.044077523 -0.0053850445 0.034446437
000170 9a 74 c1 3c ee 03 e7 bc f8 9c 05 3d 7d 8c 7b 3a
       0.02361517 -0.028200116 0.0326204 0.00095958245
000180 ee 93 10 bd 7d 0a b4 39 51 cf 6d 3d 4e 67 f2 39
       -0.035297327 0.0003434009 0.05805904 0.00046234805
000190 0d 17 63 bc da ab 77 3c 4f af 7c 3d 46 e8 f2 37
       -0.013860476 0.015116656 0.061690625 2.8956809e-05
0001a0 32 a9 b3 bc c3 2a 4a 3c f0 26 cd bc cb fb e1 bb
       -0.021931265 0.012339297 -0.02504298 -0.006896471
0001b0 3e db b9 bc dd 21 93 bd 27 88 84 3d 3f d6 0d 3d
       -0.02268755 -0.07184193 0.064712815 0.03462815
0001c0 ad 19 78 3d 8d 68 68 3d 6f e3 52 3c d7 dd 60 3d
       0.06057136 0.056740332 0.012871607 0.054899063
0001d0 9a cc f0 bb 51 ef 98 3a 7e cd 8a 3c 76 32 8d 3d
       -0.007348609 0.0011668002 0.01694369 0.0689439
0001e0 c4 dd 99 bb ab 83 70 bc 59 37 1b bc c9 04 6e 3b
       -0.004695626 -0.01467983 -0.009473645 0.003631877
0001f0 20 44 bc bc fe 43 1c bc 83 d1 a8 bc 10 e3 ff 3c
       -0.022981703 -0.009537695 -0.020607715 0.031236202
000200 2c af 93 bd 44 6a 8d bc 0a c5 da 3b e4 41 a2 bc
       -0.07211146 -0.017262585 0.006676321 -0.01980681
000210 ef bd f3 bb 19 41 93 bc 91 d8 f4 3c 36 f9 56 bc
       -0.0074384133 -0.017975377 0.029888423 -0.01312094
000220 68 63 31 bd f7 76 21 3d 50 4b ba 3d ee fe 98 3d
       -0.04330769 0.039420094 0.09096396 0.07470499
000230 db 67 7d bd 45 6d 90 bc 28 55 85 3b e3 84 a3 3b
       -0.061866622 -0.017630229 0.0040689893 0.0049902066
000240 f3 65 3f 3c 2c 93 84 bc ce 22 fb 3d 82 d0 89 bc
       0.011682021 -0.016183458 0.12262498 -0.016823057
000250 56 09 8e bd 47 8e bf 3d 66 56 ba 3b 91 e2 01 3d
       -0.069353744 0.09353309 0.005686569 0.03171021
000260 b8 63 cb 3c 9b b7 23 3d 0b 7b a6 bb 69 8b 8a bd
       0.024827823 0.03997002 -0.005080586 -0.067648716
000270 cb 04 62 3d 70 b3 ce 3c 07 8d 2a 3d de 61 bf 3c
       0.055180352 0.025232047 0.0416384 0.023362096
000280 2b c5 1e 3d 59 32 25 3d 51 29 49 bd 20 86 51 3d
       0.038762253 0.04033122 -0.049111668 0.051153302
000290 ad 6e 65 3c 40 a9 0d bc b3 f9 7e 3c a9 53 20 3d
       0.014003438 -0.008646309 0.015562463 0.039142285
0002a0 1b e9 89 3c 6d 0b c8 3c 76 f2 f2 3c cb 98 81 bc
       0.016834786 0.02441951 0.02965663 -0.015819928
0002b0 4c a0 87 bb 78 95 95 3c 62 53 0e 3d 6c 58 f3 bc
       -0.004138982 0.018259749 0.03474749 -0.029705249
0002c0 50 45 8e 3d 3d 76 8a bd 04 1a 02 3d b5 80 14 bd
       0.06946814 -0.067608334 0.03176309 -0.036255557
0002d0 82 e5 cb bc 5f b8 f1 bc 39 c9 3c bd 65 a4 c1 3c
       -0.024889711 -0.02950686 -0.04609034 0.02363796
0002e0 57 2b 90 3d bf be 45 bc f3 a9 80 bc 57 b8 53 3d
       0.070395164 -0.012069403 -0.015706038 0.051689472
0002f0 e3 9b 47 3d 7f a0 67 bd 85 8f f0 bc 61 da 6a 3b
       0.04873265 -0.056549545 -0.02936531 0.003583573
000300 7d b9 d7 3b 04 e2 15 bc 73 51 79 3d 48 5e a3 3d
       0.006583391 -0.009148125 0.06086869 0.07976967
000310 33 6d 33 3d fe d3 d6 bc b7 e3 f7 3c 45 eb 87 3c
       0.043805312 -0.026224133 0.03025995 0.016591677
000320 d8 a8 4f 3c 01 92 3d bd 84 fb 06 bd b5 79 8e bd
       0.012674533 -0.04628182 -0.032954708 -0.069568075
000330 c1 55 c5 3d 77 9e 43 3c ba 8f 06 3d 59 71 3c 3d
       0.09635497 0.011939636 0.032851912 0.046006534
000340 36 15 f9 3c ea 9c 73 3c 56 b5 90 3b 10 95 2a 3d
       0.030405622 0.014868954 0.004416148 0.041646063
000350 6b 9f dd bb f7 2b 71 3c f6 6e 97 3d cf d5 bd bc
       -0.006763389 0.014719955 0.07394211 -0.023173241
000360 0e 87 af bd a0 a0 fa 3a d0 4b f9 3a 9e 2c 6b bd
       -0.085706815 0.0019121356 0.0019019786 -0.057415597
000370 7d d5 de bc 49 88 0e bd f7 e7 5a bd d7 43 4d 3d
       -0.027201409 -0.03479794 -0.053443875 0.050113525
000380 c3 29 94 3c bf ca 90 3c 45 b5 7c 3d f1 93 0d bb
       0.01808632 0.017674802 0.06169631 -0.0021603073
000390 1e a0 ca 3c 44 3c 75 bd bc 7c 9f bd 73 36 09 3d
       0.024734553 -0.059871927 -0.07787463 0.033499192
0003a0 18 71 fd 3b c9 dd 9f bc d6 0a d5 bd 86 7b 11 3d
       0.007734429 -0.019514935 -0.104024574 0.03551819
0003b0 74 a5 cf bc 76 68 49 3d ed 75 b8 bc 4a 74 2f 3c
       -0.025347449 0.049171887 -0.022517169 0.010708878
0003c0 8c 5c 99 3d c4 63 0b 3c 6a d7 cd 3d 5b 57 13 bc
       0.07488355 0.008507673 0.100508526 -0.008992995
0003d0 15 d4 04 3d df 82 31 bd ae 7b 47 bd 2f 67 55 3c
       0.03242882 -0.0433377 -0.048701935 0.013025089
0003e0 31 11 3f 3c cd c7 86 3c 0b d4 89 ba 02 d0 d8 bc
       0.011661814 0.016452694 -0.0010515464 -0.026466373
0003f0 79 95 2f bc 4e 4a 9c bc 4a 68 55 3d 26 e7 44 bd
       -0.010716789 -0.0190784 0.05210141 -0.048072003

running_mean f4 [300]
000000 fe 9b 62 3e 3c e3 82 3e 30 0b 72 3e d7 e4 52 3e
       0.22129819 0.2556399 0.2363708 0.20595108
000010 42 f0 8e 3e db c9 29 3e ec 9c 7c 3e 70 45 25 3e
       0.27917677 0.16580908 0.24669236 0.1613977
000020 fa 68 85 3e 06 b4 5b 3e f9 cd 85 3e 82 23 5f 3e
       0.26056653 0.21455392 0.26133707 0.21790889
000030 1f 7d 3c 3e c0 4b 15 3e 43 df 86 3e 0b 19 29 3e
       0.18407105 0.14579678 0.2634221 0.1651346
000040 21 9d 12 3e ff ef 44 3e 4b 93 79 3e 1c 05 0e 3e
       0.14317752 0.19232176 0.24372594 0.13869137
000050 0c 5f 4a 3e 7a e4 55 3e e3 2d 8e 3e f8 e7 88 3e
       0.1976282 0.20887938 0.27769384 0.26739478
000060 85 77 31 3e 01 91 82 3e bd be 25 3e 04 50 90 3e
       0.1733075 0.25501254 0.16186042 0.28186047
000070 5a 95 5f 3e b4 10 53 3e 37 e5 ab 3e 0a dd 5b 3e
       0.21834317 0.2061184 0.33573315 0.21471038
000080 c5 d9 ae 3e eb 6b 85 3e a3 78 75 3e e5 49 12 3e
       0.3415052 0.26058897 0.239718 0.14286001
000090 d2 95 10 3e a4 04 37 3e 82 1a 4b 3e 50 5e 40 3e
       0.14119652 0.17872864 0.1983433 0.18785977
0000a0 22 e1 1a 3e c7 a5 1b 3e ba d4 1f 3e ce f2 0d 3e
       0.15124944 0.15199958 0.15608492 0.13862154
0000b0 a6 c0 4f 3e 84 3c b9 3e 08 0c c7 3e 5e 8a a4 3e
       0.20288333 0.36178982 0.38876367 0.32136816
0000c0 9d 69 36 3e e5 7f 47 3e 95 23 9b 3e e6 c4 5b 3e
       0.17813726 0.19482382 0.30300584 0.2146183
0000d0 ae 54 84 3e e7 df 5b 3e 38 47 84 3e 10 05 79 3e
       0.25845855 0.2147213 0.25835586 0.24318337
0000e0 48 5f 4c 3e 02 3a 45 3e f9 b3 07 3e 66 e2 de 3d
       0.19958222 0.1926041 0.13252248 0.10883026
0000f0 9f 4e 23 3e 78 97 51 3e 32 a6 7a 3e 71 3f a8 3e
       0.1594796 0.20467937 0.24477461 0.32860902
000100 5e 8f 53 3e 4c 25 8e 3e db ac 6b 3e 29 07 30 3e
       0.20660159 0.2776283 0.23015158 0.17190231
000110 39 bc 83 3e 6e 1c 02 3e 77 e6 92 3e 3b 64 2f 3e
       0.2572954 0.12706158 0.28691456 0.17128079
000120 66 0b 81 3e af 84 29 3e d6 11 5d 3e b3 4e 1a 3e
       0.2520401 0.16554521 0.21588835 0.15069084
000130 d1 3b 8d 3e 97 a2 5f 3e e4 94 81 3e ed 8d 8e 3e
       0.275847 0.21839367 0.25308907 0.27842656
000140 e3 e5 18 3e d9 0a 43 3e 03 65 7d 3e 7a 4f 5f 3e
       0.14931445 0.19047107 0.24745564 0.21807662
000150 0f 51 26 3e c7 5b ea 3d 52 2e 4a 3e 10 61 8b 3e
       0.16241859 0.114432864 0.19744232 0.2722249
000160 4c 09 52 3e 77 52 08 3e a4 8a 1c 3e a5 1c 62 3e
       0.20511359 0.13312708 0.15287262 0.2208124
000170 f8 6f 88 3e 81 6f 8e 3e b0 1f 56 3e d3 4c 4d 3e
       0.26647925 0.27819446 0.20910525 0.20048837
000180 1d c5 0c 3e 36 c4 e1 3d fb 9f 0c 3e d6 09 3a 3e
       0.13747068 0.110237524 0.13732903 0.18167815
000190 f3 77 9a 3e ad 71 3e 3e 0a 78 91 3e 92 42 6c 3e
       0.3016964 0.18598051 0.28411895 0.2307227
0001a0 d1 3d fc 3d ac 56 19 3e be 74 3b 3e 51 12 f0 3d
       0.12316478 0.14974469 0.18306252 0.117222436
0001b0 ce a3 ad 3e 66 48 9f 3e 38 c8 e9 3d 17 e3 3e 3e
       0.33914036 0.31109923 0.11415142 0.18641315
0001c0 24 b6 1f 3e 0a b0 43 3e 5c 36 16 3e 62 03 1a 3e
       0.15596825 0.19110122 0.14669174 0.15040353
0001d0 d3 b2 5c 3e d5 3b a5 3e 9a ff 6d 3e 3f 37 a4 3e
       0.21552591 0.3227221 0.23242036 0.320734
0001e0 c1 8a 49 3e a6 7a 07 3e 06 3e 48 3e 88 dd 86 3e
       0.19681837 0.1323038 0.1955491 0.2634089
0001f0 dd 73 5c 3e 1f 0f 7d 3e 69 6f 3b 3e 8d 9a 01 3e
       0.21528573 0.247128 0.18304218 0.12656613
000200 57 cd a7 3e 00 81 7a 3e 30 a2 02 3e aa 81 84 3e
       0.3277385 0.24463272 0.12757182 0.25880176
000210 fc 95 9c 3e 5e 0a 69 3e 5c 6b 27 3e 5a 2a 19 3e
       0.3058318 0.22757861 0.16349548 0.14957562
000220 de a0 34 3e a8 ef 0c 3e da c6 97 3e 67 22 4c 3e
       0.17639491 0.13763297 0.296439 0.19934998
000230 28 3e 31 3e 16 7c e8 3d 3a f7 62 3e d5 14 3b 3e
       0.17308867 0.113517925 0.22164622 0.18269666
000240 af 0d ed 3d 5c 20 23 3e 7b 27 5a 3e ed 53 61 3e
       0.115748756 0.15930313 0.21304123 0.22004671
000250 ce f5 56 3e 00 94 ba 3e c3 c5 2b 3e ec eb 8c 3e
       0.20992205 0.3644104 0.16774659 0.27523744
000260 90 24 17 3e f8 9f 23 3e c8 d8 4a 3e 4a d8 66 3e
       0.14760041 0.15978992 0.19809258 0.22543445
000270 b4 c1 37 3e ce 01 64 3e 6c f3 4e 3e 1a 95 52 3e
       0.17944986 0.22266313 0.20210046 0.2056469
000280 6a 3a 40 3e 0c 0f 4a 3e dc c0 97 3e ae ba 64 3e
       0.18772283 0.19732302 0.29639328 0.22336838
000290 0f 05 14 3e b8 9f 45 3e b2 48 7d 3e 22 db 28 3e
       0.14455055 0.19299209 0.24734762 0.16489843
0002a0 85 50 32 3e 0c 27 43 3e c6 a4 62 3e 9d b8 3b 3e
       0.17413528 0.19057864 0.22133169 0.18332143
0002b0 83 d8 96 3e 0e ee 2e 3e 70 69 84 3e a3 a0 82 3e
       0.2946206 0.17082998 0.25861692 0.2551318
0002c0 ac 92 51 3e 2f 2b 29 3e 17 5a 03 3e 5c 1b 68 3e
       0.20466107 0.1652038 0.12827335 0.22666687
0002d0 78 86 49 3e 8d 23 88 3e 87 23 02 3e aa 4d 8f 3e
       0.19680202 0.26589623 0.12708865 0.2798894
0002e0 ba 34 58 3e fe dc 54 3e 92 6a 18 3e b3 a8 54 3e
       0.21113864 0.20787427 0.14884403 0.20767479
0002f0 30 5d 43 3e a6 1e 2c 3e cc a3 9e 3e 47 f1 99 3e
       0.19078517 0.16808566 0.30984342 0.30066893
000300 81 a4 1c 3e fc 46 b0 3e 1d 4c 9a 3e fa 2e f3 3d
       0.15297128 0.34429157 0.30136195 0.118741944
000310 7a 43 91 3e 4f 0b 70 3e 67 b4 43 3e 6a cd 60 3e
       0.28371793 0.23441814 0.19111787 0.21953359
000320 80 f4 c1 3e f5 05 b0 3e 05 3e 30 3e 1e 5e 96 3e
       0.3788185 0.34379545 0.17211159 0.2936868
000330 bb 05 77 3e e1 22 fb 3d ce da c1 3e 7d ba 0b 3e
       0.2412328 0.12262512 0.37862247 0.13645358
000340 40 ca 9c 3e 92 bd 66 3e f8 08 80 3e 3e 1d 21 3e
       0.30623055 0.22533253 0.25006843 0.15733811
000350 ce 0b 2b 3e 58 f2 95 3e 70 0d 99 3e 0c 3d 7d 3e
       0.16703722 0.29286456 0.29893064 0.24730319
000360 71 ab 37 3e d0 6e a2 3e 9c 6c 8f 3e d9 81 6a 3e
       0.17936493 0.31725168 0.2801255 0.22901095
000370 5e f5 7d 3e 7b 21 18 3e b6 47 76 3e bc 76 eb 3d
       0.24800631 0.14856522 0.24050793 0.11497256
000380 32 28 33 3e 09 6f 4f 3e 47 94 4a 3e 55 b7 4f 3e
       0.17495802 0.202572 0.19783126 0.2028478
000390 10 c9 84 3e 7f e9 61 3e 76 15 39 3e 95 46 3f 3e
       0.2593465 0.22061728 0.18074593 0.18679269
0003a0 6e 3d 57 3e 9d 5a fc 3d de 7f 8a 3e c3 e4 97 3e
       0.21019527 0.123219706 0.2705068 0.2966672
0003b0 b7 67 97 3e bf 24 72 3e 2d 20 82 3e 14 d7 ab 3e
       0.29571316 0.2364683 0.25415173 0.3356253
0003c0 64 a2 45 3e 2a be 27 3e 32 7a 09 3e cb 20 18 3e
       0.19300228 0.16381136 0.1342552 0.1485626
0003d0 af 34 38 3e 33 2d 1f 3e d3 1d 8b 3e 25 22 5e 3e
       0.17988847 0.15544586 0.27171192 0.21692713
0003e0 06 38 26 3e f4 64 65 3e bf e3 60 3e 85 fd 86 3e
       0.16232309 0.22401792 0.21961878 0.26365295
0003f0 b1 87 2c 3e 64 91 ff 3d 48 85 16 3e 2e 35 59 3e
       0.16848637 0.12478903 0.1469928 0.21211693

running_var f4 [300]
000000 e9 03 c5 3d de 2d c8 3d dc ef 8b 3d 20 9b b3 3d
       0.096198864 0.097743735 0.06832859 0.08769822
000010 da 47 bc 3d c8 53 33 3d 2e 5d 98 3d bd 79 b5 3d
       0.09193392 0.043781072 0.074396476 0.0886111
000020 5c dc e2 3d 7d d1 03 3e a0 85 47 3e 3a a0 ce 3d
       0.110771865 0.12872882 0.19484568 0.100891545
000030 89 ef 14 3e bd 8a 4a 3d a2 85 48 3e 7e 34 83 3d
       0.145445 0.049448717 0.19582227 0.064064965
000040 0a 3c ff 3c c3 af 90 3d ee 8c ec 3d 3b 22 45 3d
       0.031156559 0.07064774 0.11550318 0.048128348
000050 5c 4d db 3d 93 d1 e1 3d d8 4c bf 3d 3d 1d 78 3e
       0.107081145 0.11026301 0.09340829 0.24229904
000060 b5 3e a6 3d 4c f1 f9 3d 6e 84 80 3d 19 69 ce 3d
       0.08117429 0.12204227 0.06275259 0.100786395
000070 73 2d 91 3d 66 b8 b5 3d f4 69 ef 3e 7b 2f e2 3d
       0.07088747 0.08873062 0.46760523 0.110442124
000080 59 1a 02 3f 49 ec 4c 3e 30 a6 d1 3d ca 3b 17 3d
       0.50821453 0.2001201 0.10236776 0.036922254
000090 e1 b5 45 3d 54 0b 6b 3d 66 da bf 3d f3 50 67 3d
       0.048269156 0.05738385 0.09367828 0.056473684
0000a0 d3 fd 32 3d 39 31 2b 3d 8f 91 29 3d 8a 2f 08 3d
       0.043699097 0.04179499 0.04139858 0.03324846
0000b0 99 8a ed 3d 39 bf 16 3e 6d c9 29 3f 84 a5 93 3e
       0.11598701 0.14721383 0.66322976 0.28837216
0000c0 b8 17 80 3d 48 fa a4 3d 43 8b d9 3e 67 7a bb 3d
       0.06254524 0.0805555 0.4248906 0.09154206
0000d0 0c 39 0c 3e 3a ec dc 3d 6b f9 58 3e 94 82 d4 3d
       0.13693637 0.10787244 0.21188895 0.10376468
0000e0 94 4e 3a 3d 71 e9 ac 3d bb 8f 26 3d bd 64 c9 3c
       0.045485094 0.08442963 0.040664416 0.024584169
0000f0 5a 43 9b 3d 1d 65 77 3d c4 45 d2 3d 17 bb da 3e
       0.07581206 0.060399164 0.10267213 0.42720863
000100 ef 92 b4 3d 63 4b 6d 3d 17 79 fd 3d 04 20 29 3d
       0.08817088 0.057933223 0.12376612 0.041290298
000110 15 61 63 3e ab 54 1a 3d d2 02 56 3e b5 9c 8e 3d
       0.22205003 0.037678402 0.20899513 0.06963483
000120 c6 b1 90 3e eb 23 4f 3d 7b 93 aa 3d a8 7f 38 3d
       0.2826063 0.050571363 0.08328911 0.045043617
000130 81 e6 06 3e 79 1f 2b 3e 54 79 c7 3d 78 bc d5 3d
       0.13173868 0.16711225 0.097399384 0.10436338
000140 bc c1 5f 3d 27 85 d6 3d ac 53 f0 3d 72 ff 92 3d
       0.05462812 0.104746155 0.11734709 0.071776286
000150 08 63 5b 3d 79 71 ff 3c 9b 30 92 3d 70 d2 86 3e
       0.05356124 0.031182038 0.07138177 0.26332426
000160 de 57 b3 3d ee 6b 01 3d 6a ec 85 3d 31 41 01 3e
       0.08756994 0.03159707 0.06539233 0.12622525
000170 c7 08 64 3e fe 2a 56 3d a3 b7 e5 3d 9d b5 ae 3d
       0.22268973 0.052287094 0.112166665 0.08530734
000180 0c 50 2a 3d 24 a3 da 3c 60 25 32 3d 82 a3 17 3e
       0.041580245 0.02668912 0.043492675 0.14808467
000190 e4 1c c3 3d 1d 86 52 3d 60 d2 08 3e 42 ee b6 3d
       0.09526995 0.05139743 0.13361502 0.08932163
0001a0 da 08 34 3d fe 47 33 3d 03 6c 7d 3d 45 fe f2 3c
       0.043953754 0.04376983 0.061870586 0.02966226
0001b0 85 dc c2 3d af 4f 43 3e 39 92 42 3d 93 c8 87 3d
       0.09514717 0.19073366 0.04750273 0.06630053
0001c0 00 a2 4e 3d de 2c 9e 3d 05 c1 3b 3d 76 90 45 3d
       0.050447464 0.077234015 0.045838375 0.04823347
0001d0 c7 c8 b1 3d c1 7a ee 3e 56 57 29 3e d9 bd 0c 3e
       0.08680873 0.4657803 0.16537222 0.13744296
0001e0 f8 32 2d 3e a5 7e 5d 3d 33 52 9c 3d 5d f9 20 3e
       0.16913974 0.054075856 0.07632866 0.15720125
0001f0 48 52 2a 3e a6 c4 be 3d 90 77 21 3e e7 4f 2e 3d
       0.1663295 0.093148515 0.15768266 0.04255667
000200 e9 12 22 3e 3d 4f 84 3e 21 02 0b 3d b0 ee 60 3e
       0.15827526 0.25841704 0.033937577 0.21966052
000210 fa 98 cd 3d d7 b5 e7 3d 34 2c 33 3d cb 2d 0c 3d
       0.100389436 0.1131398 0.043743327 0.03422336
000220 a1 30 50 3d 83 0d 43 3d 96 15 a7 3e 01 d2 e4 3d
       0.050827626 0.047620308 0.32633656 0.111728676
000230 88 97 5b 3d eb fb 0b 3d 56 83 ca 3d ce 94 8b 3d
       0.05361131 0.034175795 0.098883316 0.068154916
000240 6a b5 22 3d 59 ba 90 3d 65 7a b9 3d e2 88 38 3e
       0.03972379 0.07066793 0.09056548 0.18020967
000250 42 e6 9f 3d ac 6d 2b 3e 3e 3b 8c 3d 77 e3 e7 3d
       0.0780759 0.16741055 0.06847237 0.11322682
000260 16 fc 9b 3d 06 48 4d 3d 68 7b 19 3e 72 76 46 3e
       0.07616441 0.050117515 0.14988482 0.19381121
000270 7b 42 23 3e 6c d0 eb 3d 3a 3c bb 3d 2e 41 ff 3d
       0.15943329 0.11514363 0.09142347 0.12463604
000280 2a 5f b1 3d f9 b7 c1 3d 7b c6 98 3d 91 55 32 3e
       0.08660729 0.09458918 0.07459732 0.17415453
000290 05 42 29 3d f4 55 aa 3d 62 f8 f4 3d bb 09 d7 3d
       0.041322727 0.083171755 0.11961438 0.10499903
0002a0 0f 0a 7d 3d 26 f8 50 3d 88 5e a4 3d 95 9d 73 3d
       0.06177717 0.051017903 0.08025843 0.059476454
0002b0 e5 ca c1 3e 42 1d 67 3d 08 45 59 3e 59 ed f3 3d
       0.3785011 0.056424387 0.2121774 0.11910505
0002c0 1b 82 84 3d 99 ef 68 3d aa c7 d8 3c ea 52 d8 3d
       0.06470128 0.056869123 0.026462395 0.105626896
0002d0 74 ab 9e 3d f2 9d 45 3e f1 13 16 3d 26 d0 43 3e
       0.07747546 0.19298533 0.03664011 0.19122371
0002e0 65 f2 c5 3d 69 12 c6 3d 1a 6f 62 3d 79 fe 15 3e
       0.09665374 0.0967148 0.055281736 0.14647855
0002f0 aa a3 de 3d c8 95 40 3d 88 77 fa 3d f7 29 81 3e
       0.1087106 0.047017843 0.1222983 0.2522733
000300 fc 81 40 3d f1 96 e2 3e fe 06 33 3e 03 32 c5 3c
       0.046998963 0.44255784 0.17483136 0.024071699
000310 83 06 e7 3d 4c a1 3a 3e f8 56 a4 3d 11 9e 0b 3e
       0.11280539 0.18225592 0.080244005 0.13634516
000320 b5 f6 37 3e 07 1a 25 3e 40 fb 6d 3d 26 22 fc 3d
       0.17965205 0.1612321 0.05810094 0.12311201
000330 98 7d bf 3d 94 8e 11 3d a1 04 1b 3f 37 3a 1b 3d
       0.09350127 0.035536364 0.6055394 0.037897315
000340 54 23 d0 3e a3 e1 ca 3d 47 18 ad 3d 8f 87 09 3d
       0.40651953 0.09906318 0.08451896 0.033576544
000350 09 e6 56 3d 67 6c 37 3e 06 35 fe 3d aa 43 b5 3d
       0.052465472 0.17912446 0.12412457 0.088507965
000360 6d 61 f2 3d 5f d3 9b 3e 3b 80 0f 3e 24 ad 23 3e
       0.11834989 0.304347 0.1401376 0.15984017
000370 cd bc a9 3d bb c3 20 3d 08 2a fd 3d 1f d8 e1 3c
       0.08287964 0.039249163 0.123615324 0.027568875
000380 49 c3 f0 3d 31 f4 9e 3d 2f fb b4 3d 33 26 d8 3d
       0.11755998 0.077614196 0.08836972 0.10554161
000390 0f d1 72 3e fb fc ce 3d cd 66 97 3d 29 e2 98 3d
       0.23712562 0.10106846 0.073926546 0.074650116
0003a0 53 a6 67 3d 2d 2b fe 3c 72 b0 f0 3d 88 10 56 3e
       0.056555104 0.031026447 0.11752404 0.20904744
0003b0 f1 75 dc 3d bf ed 39 3e 46 47 f5 3d 86 78 f5 3e
       0.10764683 0.18157099 0.11976485 0.47943515
0003c0 c8 75 95 3d 8e d4 5b 3d fb 53 1b 3d b0 78 58 3d
       0.072978556 0.053669505 0.037921887 0.05284947
0003d0 60 de 6a 3d 62 18 5f 3d 05 6a 0f 3e bb f8 30 3e
       0.05734098 0.054466613 0.14005287 0.17282383
0003e0 01 2c 46 3d 76 da 7f 3d 60 1d cd 3d 7e 87 1a 3e
       0.04838181 0.0624642 0.100153685 0.15090749
0003f0 9b c9 59 3d 27 aa 1e 3d 4d 4d 19 3d 37 1c 0c 3e
       0.05317078 0.03873649 0.037427235 0.13682638

weight f4 [200, 300]
000000 a5 01 db 3c 6a 13 51 bb d1 9f 6f bd 1a 61 ff 3c
       0.026734183 -0.003190244 -0.058502022 0.031174231
000010 35 55 8f bd d3 8a d0 3c c7 37 6a bc 5c ea ce 3c
       -0.06998674 0.025456822 -0.014295525 0.025258236
000020 6e bd 65 3d ae a5 04 bc 80 27 04 3d b7 8d cf 3c
       0.056088857 -0.008096142 0.032264233 0.02533613
000030 8d 61 ba 3c b3 82 66 3d 2a 68 58 3d 8c bc 3d bd
       0.022751594 0.05627699 0.052833714 -0.04632239
000040 46 3b 31 bc a5 c6 b0 bc 98 ac fe 3c d6 8c 12 3d
       -0.010817355 -0.021579096 0.031088158 0.035778843
000050 02 96 58 3b f5 b0 bf 3b 39 d2 0b bc 50 48 f9 3b
       0.0033048396 0.0058499523 -0.008534008 0.0076074973
000060 a0 cf 19 bc 6d 46 04 3d cc 3d 7f bd 35 85 d6 bc
       -0.009387881 0.032293726 -0.062314793 -0.026186565
000070 4c 45 36 bc 79 e0 1e 3d b8 14 3b 3d 8d 3a ef bc
       -0.01112492 0.038788293 0.045674056 -0.029202724
000080 87 68 1d bd 65 1f 98 3b d3 15 0d bd 56 63 56 bd
       -0.038429763 0.0046424144 -0.03444464 -0.052340828
000090 79 ee 67 bc 65 50 d8 3a bf 39 de bb 0f aa 47 bd
       -0.014155977 0.0016503452 -0.006781786 -0.048746165
0000a0 8b 99 30 3d b0 7c 25 3d a9 a4 5f bd bf 4a 63 bd
       0.04311518 0.040402114 -0.05460039 -0.055491205
0000b0 3d 00 49 bd 27 a7 e6 3c 31 f8 df bc ac ff a4 bc
       -0.049072493 0.028155876 -0.027340027 -0.020141445
0000c0 66 f1 42 bd da cf 58 bd cc e9 23 3d 6f d3 65 3d
       -0.047593497 -0.052932598 0.040017888 0.056109842
0000d0 d9 6f 1d bd 20 1d 19 3c 7f 9a 2a bc b5 ba 2c 3d
       -0.038436744 0.009345323 -0.010412811 0.042170245
0000e0 40 81 67 bc bc 1c 75 bc 2a 59 25 3d 47 c8 fa 3c
       -0.014129937 -0.014960464 0.040368237 0.030613078
0000f0 bf 09 1f 3e 75 4c 8d bc 29 f0 a5 bd d4 9c 4a 3d
       0.15531062 -0.017248372 -0.081024475 0.04946597
000100 43 f4 37 bd 44 03 82 3b 72 41 31 3d b2 7e b4 3c
       -0.04491068 0.0039676744 0.043275304 0.02203307
000110 2e fa 32 bb fe 80 70 bd e2 1c 3e bd 2e 87 05 3d
       -0.0027309763 -0.058716767 -0.046414264 0.03259962
000120 4b 05 2e bd c9 77 10 3d 48 35 3e 3d 65 f2 a0 bc
       -0.042485517 0.035270486 0.04643753 -0.019646833
000130 65 06 40 3d d6 2e 40 bd 68 c1 f4 3c fb df a2 bd
       0.0468811 -0.046919666 0.02987738 -0.07952877
000140 6c 7c 3c 3d 8f 00 2f bd b0 09 05 3c df fb 88 bc
       0.046017095 -0.042725142 0.008119985 -0.016721664
000150 92 09 0a bd d3 bd 75 3c 3e a2 33 3d 70 91 cd 3c
       -0.033700533 0.014998871 0.043855898 0.025093764
000160 e3 5c 0c 3d a5 e2 e7 bc ce ca d0 bc ca 4d 09 bd
       0.03426827 -0.028306315 -0.02548733 -0.03352145
000170 56 c3 35 bc 8b e7 bb bc 72 1a d7 3c 5d 2d 2e bd
       -0.011093935 -0.022937557 0.026257727 -0.04252373
000180 74 32 06 3d 04 97 0b bd 1c 59 ab 3c 84 02 2e bb
       0.03276296 -0.034079567 0.020916514 -0.0026551792
000190 23 b8 5a 3d 07 af 3d bd a9 db 5e bd 6d af d1 3c
       0.053398263 -0.046309497 -0.054408703 0.025596345
0001a0 7a 62 9d bc 9e 98 7b 3c 31 4c c3 3c c4 72 3f bd
       -0.019211996 0.015356211 0.023840042 -0.04674031
0001b0 bb dd 16 3d 18 a2 85 3c a1 86 3b bb f7 4e 44 bd
       0.036832552 0.016312644 -0.002861418 -0.04792687
0001c0 3a 50 6d bd 8b 5c 31 3d 25 ed 09 3c 34 3e 4e 3d
       -0.057937838 0.043301146 0.008418356 0.05035229
0001d0 1e fb b1 bd c9 15 13 3b b7 6b 4b 3d bd d2 3a 3c
       -0.08690475 0.0022443405 0.04966327 0.011402783
0001e0 69 c9 5d 3d 47 30 64 3d 74 cd 5a 3d 0f b4 c1 3c
       0.054147158 0.055710103 0.05341859 0.023645429
0001f0 15 b2 22 3c 07 dd 39 3d f1 ab 54 3d 99 04 76 bc
       0.009930153 0.045376804 0.05192179 -0.015015745
000200 2f 03 04 bd 00 37 26 3d a4 41 8c 3c 11 6c 0e 3d
       -0.0322296 0.040579796 0.017121144 0.03477103
000210 4e eb 9f bd 6b 0f aa 3a 1f e8 56 3c 36 aa bb bc
       -0.07808553 0.0012974566 0.013116865 -0.022908311
000220 6f 35 a5 bc 57 36 1d 3d ce 80 3f bd 93 0d 3c 3c
       -0.02016708 0.0383819 -0.046753697 0.011477846
000230 d5 d3 e8 3c a9 e4 ee ba ce d2 14 3d 76 46 58 bd
       0.028421322 -0.0018226105 0.03633385 -0.05280157
000240 a7 bc 73 3c cd 2d 44 3c cd f4 18 3c f9 05 15 bd
       0.014876521 0.01197381 0.009335709 -0.03638265
000250 fb 5f dc 3c 70 ea 2c 3d 2b f9 50 bd 7f d8 06 3c
       0.026901236 0.042215765 -0.051018875 0.008230328
000260 ff 12 99 bc 3e 65 3f bd a7 12 be 3c ba 4d ee 3c
       -0.018685816 -0.04672741 0.023202254 0.029089797
000270 90 a7 fd 3c f3 23 6e 3b 23 6c 55 bd b2 2b b5 bb
       0.03096369 0.0036337345 -0.05210508 -0.0055288905
000280 4a bb f6 bc 75 75 ab bc 86 c1 78 bd bd d5 e5 3d
       -0.030118603 -0.020930031 -0.060731433 0.11222408
000290 c2 a7 92 3c 9b cb 4f 3c 6e e3 39 3c eb 59 0a 3d
       0.017902259 0.012682821 0.011345727 0.03377716
0002a0 4f 89 a0 3b e9 d1 74 3c dd 9b 92 3c f2 ce c8 3c
       0.004899181 0.014942625 0.017896587 0.024512742
0002b0 e5 f0 91 3d 04 ba de bc 71 d9 2e bd 1d a5 12 bd
       0.07126025 -0.027188309 -0.042687837 -0.035801996
0002c0 28 d0 bb bd a4 00 65 3d 69 d0 45 3d 4c ec e3 bb
       -0.09170562 0.055908814 0.04829446 -0.006955659
0002d0 64 52 fa 3c 03 6f 0a 3b 5e 5b a9 3d 30 65 23 3d
       0.030556865 0.0021123297 0.0826938 0.03989142
0002e0 98 88 fa bc e7 67 76 bd 42 41 1a bd f0 ef 04 3d
       -0.030582711 -0.060157683 -0.03765989 0.032455385
0002f0 50 53 57 3d b9 2c 59 3c 02 ab 1e bd 58 de 9a bc
       0.052569687 0.013255292 -0.038737305 -0.01890485
000300 d1 55 11 bd c3 9b ac 3c 97 07 8f bd ee f4 5e 3d
       -0.03548223 0.021070367 -0.069838695 0.054432802
000310 b5 b3 c2 ba ed 2b 0b 3d 89 33 35 3c 1e 0c 7d 3d
       -0.0014854582 0.033977438 0.01105965 0.061779134
000320 fe 34 70 3c 91 70 04 bc 0e 59 22 bc ee c4 a8 bc
       0.014661072 -0.008083479 -0.009908928 -0.020601716
000330 05 da 00 bd 3a be 67 bc 96 98 99 bc d8 70 7a 3d
       -0.03145792 -0.014144475 -0.018749516 0.061142772
000340 1c 19 92 bb 8b 8c 33 bd 69 14 08 3d a8 13 17 bc
       -0.0044585597 -0.043835204 0.03322259 -0.009220995
000350 c9 f5 44 bc 3b 81 6e 3c ab c4 de b8 6e 83 0c bc
       -0.01202149 0.014557178 -0.00010622417 -0.008576257
000360 36 64 7b 3d 47 86 23 3d de fd 30 bd 78 92 b6 3c
       0.061374865 0.03992298 -0.043210857 0.022286639
000370 8e 20 0f 3d 5d de f7 3c e0 e2 45 3d 0e 16 49 3c
       0.034943156 0.030257398 0.048312068 0.012273325
000380 01 56 57 3c 3e 58 8b bd c6 a8 0d 3c 79 5c 10 3d
       0.0131430635 -0.0680394 0.008646196 0.03524444
000390 27 ae 73 3d 73 42 70 bb 1a d0 4f 3d c3 e9 83 bd
       0.059492256 -0.00366607 0.05073557 -0.06441071
0003a0 2f ce 36 3d 4f 8f 84 bc 04 fa 42 3c b4 ef bc 3a
       0.044630226 -0.016181616 0.011900429 0.0014414699
0003b0 76 a9 50 bd e1 04 03 3c 9d 88 5a bc e5 3e 06 3d
       -0.05094286 0.007996769 -0.013338235 0.032774825
0003c0 4c e4 d6 3c 39 7e 59 bd e9 0c 76 ba c5 34 ac 3b
       0.026231907 -0.05309889 -0.0009386079 0.005255314
0003d0 be c7 36 bd e2 09 fe bc e5 09 46 bc 92 07 de 3c
       -0.044624083 -0.031010572 -0.01208732 0.02710322
0003e0 f2 83 39 bd 0a ff d3 3b 65 8f 89 3d 0d b0 17 39
       -0.04529185 0.006469612 0.067168035 0.00014466066
0003f0 44 e4 63 3d 01 7c a1 bc ee 9a 26 bd 10 00 45 3d
       0.055637613 -0.01971245 -0.040675096 0.048095763

weight f4 [200]
000000 0d a1 71 3f 53 b5 84 3f 8a aa 72 3f f7 a0 84 3f
       0.9438637 1.0367836 0.9479147 1.0361623
000010 ec 52 84 3f 6c df 79 3f 87 52 61 3f f1 ef 72 3f
       1.0337806 0.9760654 0.8801655 0.9489737
000020 0f d6 84 3f 87 c5 8a 3f da c4 7f 3f 37 4f 81 3f
       1.0377825 1.084153 0.99909747 1.01023
000030 ee 52 65 3f c8 a6 82 3f 46 e8 89 3f 48 c5 6b 3f
       0.89579666 1.0207148 1.0774009 0.920979
000040 25 97 89 3f 80 94 6f 3f 62 9b 71 3f 9f d1 65 3f
       1.0749251 0.9358597 0.9437772 0.8977298
000050 b4 7d 86 3f 4d 93 74 3f e0 d4 7f 3f ca b4 6e 3f
       1.0507112 0.95537263 0.99934196 0.9324461
000060 c0 d2 8a 3f 34 30 78 3f 92 a1 84 3f a9 af 81 3f
       1.0845566 0.9694855 1.0361807 1.0131732
000070 59 e4 86 3f 48 4f 6c 3f ce 81 81 3f 47 86 78 3f
       1.0538436 0.92308474 1.0117738 0.9707989
000080 90 f0 8d 3f 04 01 8c 3f 97 aa 6e 3f f4 0f 6e 3f
       1.1089039 1.093781 0.9322905 0.9299309
000090 3d 1c 72 3f 52 a0 83 3f 7a bd 80 3f f3 43 87 3f
       0.9457434 1.0283301 1.0057824 1.0567611
0000a0 41 8c 6b 3f 38 0a 81 3f eb 0d 75 3f 6c f2 82 3f
       0.92010885 1.0081244 0.9572436 1.0230231
0000b0 d9 57 7c 3f 35 f2 89 3f cf 57 82 3f ae 98 82 3f
       0.98571545 1.0777041 1.0183047 1.0202844
0000c0 6c 05 89 3f bf 1f 6d 3f 22 22 6b 3f 42 62 7a 3f
       1.070478 0.92626566 0.9184896 0.9780618
0000d0 6f 2b 79 3f 39 35 7a 3f 01 ce 6d 3f 35 b6 7d 3f
       0.973319 0.9773746 0.9289246 0.9910615
0000e0 eb d4 91 3f 46 90 84 3f 27 ac 8b 3f 4b ca 82 3f
       1.1393102 1.0356529 1.0911912 1.0217985
0000f0 f9 3c 66 3f 3f d9 87 3f b6 4b 89 3f d1 e7 80 3f
       0.89936787 1.0613173 1.072623 1.0070745
000100 01 50 81 3f 0c 3c 71 3f 80 c2 84 3f 98 c9 86 3f
       1.010254 0.9423225 1.0371857 1.0530272
000110 a4 32 76 3f 84 6c 84 3f d6 08 8a 3f 20 76 76 3f
       0.9617102 1.0345616 1.0783947 0.96273994
000120 35 ef 76 3f 57 a0 89 3f 8d c4 7f 3f a0 9d 82 3f
       0.9645875 1.0752057 0.9990929 1.0204353
000130 3b ac 6c 3f 00 46 76 3f 84 55 84 3f d6 1a 77 3f
       0.924503 0.9620056 1.0338597 0.96525323
000140 01 f1 65 3f 3a 80 7c 3f e7 de 8c 3f 2b 24 81 3f
       0.8982087 0.9863316 1.1005524 1.0089163
000150 da a5 74 3f 74 c8 80 3f 03 a3 7a 3f 6d 04 81 3f
       0.9556557 1.0061173 0.97904986 1.0079476
000160 f0 06 70 3f 92 bb 74 3f 2b 14 85 3f 8b 51 8b 3f
       0.93760586 0.9559871 1.039678 1.088426
000170 09 21 8e 3f ec 0f 7d 3f be c6 7a 3f c6 03 83 3f
       1.1103832 0.9885242 0.97959507 1.0235527
000180 54 e2 6d 3f 6e 4d 79 3f 04 2d 87 3f b9 9b 82 3f
       0.92923474 0.97383773 1.0560613 1.0203773
000190 15 5e 6b 3f 2f d3 75 3f 37 7b 67 3f 58 8e 85 3f
       0.9194043 0.96025366 0.90422386 1.0434065
0001a0 ef 1e 75 3f 0e 39 77 3f b5 73 79 3f 62 8f 84 3f
       0.95750326 0.96571434 0.9744218 1.0356257
0001b0 2a e6 78 3f 6f 46 8c 3f 65 50 88 3f 78 28 8b 3f
       0.972262 1.0958995 1.0649534 1.0871725
0001c0 05 e0 6d 3f e8 9b 85 3f 64 b5 70 3f 8b d6 66 3f
       0.9291995 1.0438204 0.9402678 0.90171117
0001d0 f1 c2 81 3f 18 53 7d 3f 97 74 85 3f fc 4c 87 3f
       1.0137616 0.98954916 1.0426205 1.0570369
0001e0 fa dd 82 3f fb c7 88 3f 5d 4e 77 3f 6f 87 80 3f
       1.0223992 1.0686029 0.9660395 1.0041331
0001f0 02 55 78 3f 36 83 73 3f d9 ec 84 3f d1 c8 78 3f
       0.9700471 0.95122087 1.038478 0.9718142
000200 25 6d 88 3f 8d d2 84 3f 81 e7 83 3f 4d 42 6c 3f
       1.0658308 1.0376755 1.0305024 0.92288667
000210 13 78 80 3f 26 cf 88 3f 3c 57 88 3f 35 e3 7e 3f
       1.0036644 1.0688217 1.0651622 0.9956544
000220 ab 80 6d 3f 3b 19 79 3f 24 e1 8a 3f 74 c9 89 3f
       0.92774457 0.97304124 1.0849957 1.0764604
000230 1f 71 87 3f 78 14 85 3f 9d a2 83 3f 14 c3 69 3f
       1.0581397 1.0396872 1.0284001 0.9131329
000240 30 77 87 3f f4 d2 81 3f c6 e0 6f 3f 45 f7 87 3f
       1.0583248 1.0142503 0.9370235 1.0622336
000250 b2 53 85 3f e4 fe 7a 3f 2d 24 83 3f 0d 0a 81 3f
       1.0416167 0.9804518 1.0245415 1.0081192
000260 7d bd 67 3f ba 91 83 3f de cf 85 3f f9 ec 81 3f
       0.9052351 1.0278847 1.0454061 1.0150443
000270 e8 98 88 3f 36 0f 87 3f 24 c7 7b 3f 67 26 70 3f
       1.0671663 1.0551517 0.9835074 0.938086
000280 e6 5a 81 3f fa 19 84 3f 57 1d 85 3f 8a 1b 77 3f
       1.0105865 1.0320427 1.0399579 0.96526396
000290 69 8b 74 3f 66 2a 84 3f 6f 99 7b 3f 55 b8 87 3f
       0.95525223 1.0325439 0.98280996 1.0603129
0002a0 99 e4 87 3f 8e c1 73 3f e8 3b 85 3f 16 23 84 3f
       1.0616637 0.95217216 1.0408907 1.0323207
0002b0 d0 14 87 3f ce 5e 74 3f ff c1 74 3f 88 28 7b 3f
       1.0553226 0.9545716 0.95608515 0.9810872
0002c0 51 61 81 3f 35 d9 7e 3f 5f ca 75 3f ad 92 80 3f
       1.0107824 0.9955018 0.9601192 1.0044762
0002d0 01 49 79 3f 8e 66 86 3f 8b cf 81 3f 23 d5 80 3f
       0.9737702 1.0500047 1.0141462 1.0065044
0002e0 4c d4 76 3f 89 cc 82 3f de ca 85 3f d9 6f 81 3f
       0.9641769 1.0218669 1.0452535 1.0112258
0002f0 b5 ed 6b 3f c2 dc 8c 3f 05 f4 7c 3f 51 69 65 3f
       0.9215959 1.100487 0.98809844 0.89613825
000300 60 1c 79 3f 1d 69 81 3f db 61 84 3f 4b 45 75 3f
       0.9730892 1.0110203 1.0342363 0.9580886
000310 ed e1 80 3f ee ff 74 3f 77 3b 73 3f 2e 24 7b 3f
       1.0068947 0.9570302 0.9501261 0.9810208
